…
            norm=dict(decay_mult=0.0),
            head=dict(lr_mult=10.0))))
optimizer_config = dict()
lr_config = dict(
    policy='poly',
    warmup='linear',
    warmup_iters=1500,
    warmup_ratio=1e-06,
    power=1.0,
    min_lr=0.0,
    by_epoch=False)
runner = dict(type='IterBasedRunner', max_iters=160000)
checkpoint_config = dict(by_epoch=False, interval=1000)
evaluation = dict(interval=320000, metric='mIoU')
work_dir = './work_dirs/cffm_VMamba_baseline'
gpu_ids = range(0, 1)

2026-03-21 14:16:00,450 - mmseg - INFO - EncoderDecoder_clips(
  (backbone): Backbone_VSSM(
    (patch_embed): Sequential(
      (0): Conv2d(3, 48, kernel_size=(3, 3), stride=(2, 2), padding=(1, 1))
      (1): Permute()
      (2): LayerNorm((48,), eps=1e-05, elementwise_affine=True)
      (3): Permute()
      (4): GELU(approximate='none')
      (5): Conv2d(48, 96, kernel_size=(3, 3), stride=(2, 2), padding=(1, 1))
      (6): Permute()
      (7): LayerNorm((96,), eps=1e-05, elementwise_affine=True)
    )
    (layers): ModuleList(
      (0): Sequential(
        (blocks): Sequential(
          (0): VSSBlock(
            (norm): LayerNorm((96,), eps=1e-05, elementwise_affine=True)
            (op): SS2D(
              (out_norm): LayerNorm((96,), eps=1e-05, elementwise_affine=True)
              (in_proj): Linear(in_features=96, out_features=96, bias=False)
              (act): SiLU()
              (conv2d): Conv2d(96, 96, kernel_size=(3, 3), stride=(1, 1), padding=(1, 1), groups=96)
              (out_act): Identity()
              (out_proj): Linear(in_features=96, out_features=96, bias=False)
              (dropout): Identity()
            )
            (drop_path): timm.DropPath(0.0)
            (norm2): LayerNorm((96,), eps=1e-05, elementwise_affine=True)
            (mlp): Mlp(
              (fc1): Linear(in_features=96, out_features=384, bias=True)
              (act): GELU(approximate='none')
              (fc2): Linear(in_features=384, out_features=96, bias=True)
              (drop): Dropout(p=0.0, inplace=False)
            )
          )
          (1): VSSBlock(
            (norm): LayerNorm((96,), eps=1e-05, elementwise_affine=True)
            (op): SS2D(
              (out_norm): LayerNorm((96,), eps=1e-05, elementwise_affine=True)
              (in_proj): Linear(in_features=96, out_features=96, bias=False)
              (act): SiLU()
              (conv2d): Conv2d(96, 96, kernel_size=(3, 3), stride=(1, 1), padding=(1, 1), groups=96)
              (out_act): Identity()
              (out_proj): Linear(in_features=96, out_features=96, bias=False)
              (dropout): Identity()
            )
            (drop_path): timm.DropPath(0.014285714365541935)
            (norm2): LayerNorm((96,), eps=1e-05, elementwise_affine=True)
            (mlp): Mlp(
              (fc1): Linear(in_features=96, out_features=384, bias=True)
              (act): GELU(approximate='none')
              (fc2): Linear(in_features=384, out_features=96, bias=True)
              (drop): Dropout(p=0.0, inplace=False)
            )
          )
        )
        (downsample): PatchMerging2D(
          (reduction): Linear(in_features=384, out_features=192, bias=False)
          (norm): LayerNorm((384,), eps=1e-05, elementwise_affine=True)
        )
      )
      (1): Sequential(
        (blocks): Sequential(
          (0): VSSBlock(
            (norm): LayerNorm((192,), eps=1e-05, elementwise_affine=True)
            (op): SS2D(
              (out_norm): LayerNorm((192,), eps=1e-05, elementwise_affine=True)
              (in_proj): Linear(in_features=192, out_features=192, bias=False)
              (act): SiLU()
              (conv2d): Conv2d(192, 192, kernel_size=(3, 3), stride=(1, 1), padding=(1, 1), groups=192)
              (out_act): Identity()
              (out_proj): Linear(in_features=192, out_features=192, bias=False)
              (dropout): Identity()
            )
            (drop_path): timm.DropPath(0.02857142873108387)
            (norm2): LayerNorm((192,), eps=1e-05, elementwise_affine=True)
            (mlp): Mlp(
              (fc1): Linear(in_features=192, out_features=768, bias=True)
              (act): GELU(approximate='none')
              (fc2): Linear(in_features=768, out_features=192, bias=True)
              (drop): Dropout(p=0.0, inplace=False)
            )
          )
          (1): VSSBlock(
            (norm): LayerNorm((192,), eps=1e-05, elementwise_affine=True)
            (op): SS2D(
              (out_norm): LayerNorm((192,), eps=1e-05, elementwise_affine=True)
              (in_proj): Linear(in_features=192, out_features=192, bias=False)
              (act): SiLU()
              (conv2d): Conv2d(192, 192, kernel_size=(3, 3), stride=(1, 1), padding=(1, 1), groups=192)
              (out_act): Identity()
              (out_proj): Linear(in_features=192, out_features=192, bias=False)
              (dropout): Identity()
            )
            (drop_path): timm.DropPath(0.04285714402794838)
            (norm2): LayerNorm((192,), eps=1e-05, elementwise_affine=True)
            (mlp): Mlp(
              (fc1): Linear(in_features=192, out_features=768, bias=True)
              (act): GELU(approximate='none')
              (fc2): Linear(in_features=768, out_features=192, bias=True)
              (drop): Dropout(p=0.0, inplace=False)
            )
          )
        )
        (downsample): PatchMerging2D(
          (reduction): Linear(in_features=768, out_features=384, bias=False)
          (norm): LayerNorm((768,), eps=1e-05, elementwise_affine=True)
        )
      )
      (2): Sequential(
        (blocks): Sequential(
          (0): VSSBlock(
            (norm): LayerNorm((384,), eps=1e-05, elementwise_affine=True)
            (op): SS2D(
              (out_norm): LayerNorm((384,), eps=1e-05, elementwise_affine=True)
              (in_proj): Linear(in_features=384, out_features=384, bias=False)
              (act): SiLU()
              (conv2d): Conv2d(384, 384, kernel_size=(3, 3), stride=(1, 1), padding=(1, 1), groups=384)
              (out_act): Identity()
              (out_proj): Linear(in_features=384, out_features=384, bias=False)
              (dropout): Identity()
            )
            (drop_path): timm.DropPath(0.05714285746216774)
            (norm2): LayerNorm((384,), eps=1e-05, elementwise_affine=True)
            (mlp): Mlp(
              (fc1): Linear(in_features=384, out_features=1536, bias=True)
              (act): GELU(approximate='none')
              (fc2): Linear(in_features=1536, out_features=384, bias=True)
              (drop): Dropout(p=0.0, inplace=False)
            )
          )
          (1): VSSBlock(
            (norm): LayerNorm((384,), eps=1e-05, elementwise_affine=True)
            (op): SS2D(
              (out_norm): LayerNorm((384,), eps=1e-05, elementwise_affine=True)
              (in_proj): Linear(in_features=384, out_features=384, bias=False)
              (act): SiLU()
              (conv2d): Conv2d(384, 384, kernel_size=(3, 3), stride=(1, 1), padding=(1, 1), groups=384)
              (out_act): Identity()
              (out_proj): Linear(in_features=384, out_features=384, bias=False)
              (dropout): Identity()
            )
            (drop_path): timm.DropPath(0.0714285746216774)
            (norm2): LayerNorm((384,), eps=1e-05, elementwise_affine=True)
            (mlp): Mlp(
              (fc1): Linear(in_features=384, out_features=1536, bias=True)
              (act): GELU(approximate='none')
              (fc2): Linear(in_features=1536, out_features=384, bias=True)
              (drop): Dropout(p=0.0, inplace=False)
            )
          )
          (2): VSSBlock(
            (norm): LayerNorm((384,), eps=1e-05, elementwise_affine=True)
            (op): SS2D(
              (out_norm): LayerNorm((384,), eps=1e-05, elementwise_affine=True)
              (in_proj): Linear(in_features=384, out_features=384, bias=False)
              (act): SiLU()
              (conv2d): Conv2d(384, 384, kernel_size=(3, 3), stride=(1, 1), padding=(1, 1), groups=384)
              (out_act): Identity()
              (out_proj): Linear(in_features=384, out_features=384, bias=False)
              (dropout): Identity()
            )
            (drop_path): timm.DropPath(0.08571428805589676)
            (norm2): LayerNorm((384,), eps=1e-05, elementwise_affine=True)
            (mlp): Mlp(
              (fc1): Linear(in_features=384, out_features=1536, bias=True)
              (act): GELU(approximate='none')
              (fc2): Linear(in_features=1536, out_features=384, bias=True)
              (drop): Dropout(p=0.0, inplace=False)
            )
          )
          (3): VSSBlock(
            (norm): LayerNorm((384,), eps=1e-05, elementwise_affine=True)
            (op): SS2D(
              (out_norm): LayerNorm((384,), eps=1e-05, elementwise_affine=True)
              (in_proj): Linear(in_features=384, out_features=384, bias=False)
              (act): SiLU()
              (conv2d): Conv2d(384, 384, kernel_size=(3, 3), stride=(1, 1), padding=(1, 1), groups=384)
              (out_act): Identity()
              (out_proj): Linear(in_features=384, out_features=384, bias=False)
              (dropout): Identity()
            )
            (drop_path): timm.DropPath(0.10000000149011612)
            (norm2): LayerNorm((384,), eps=1e-05, elementwise_affine=True)
            (mlp): Mlp(
              (fc1): Linear(in_features=384, out_features=1536, bias=True)
              (act): GELU(approximate='none')
              (fc2): Linear(in_features=1536, out_features=384, bias=True)
              (drop): Dropout(p=0.0, inplace=False)
            )
          )
          (4): VSSBlock(
            (norm): LayerNorm((384,), eps=1e-05, elementwise_affine=True)
            (op): SS2D(
              (out_norm): LayerNorm((384,), eps=1e-05, elementwise_affine=True)
              (in_proj): Linear(in_features=384, out_features=384, bias=False)
              (act): SiLU()
              (conv2d): Conv2d(384, 384, kernel_size=(3, 3), stride=(1, 1), padding=(1, 1), groups=384)
              (out_act): Identity()
              (out_proj): Linear(in_features=384, out_features=384, bias=False)
              (dropout): Identity()
            )
            (drop_path): timm.DropPath(0.11428571492433548)
            (norm2): LayerNorm((384,), eps=1e-05, elementwise_affine=True)
            (mlp): Mlp(
              (fc1): Linear(in_features=384, out_features=1536, bias=True)
              (act): GELU(approximate='none')
              (fc2): Linear(in_features=1536, out_features=384, bias=True)
              (drop): Dropout(p=0.0, inplace=False)
            )
          )
          (5): VSSBlock(
            (norm): LayerNorm((384,), eps=1e-05, elementwise_affine=True)
            (op): SS2D(
              (out_norm): LayerNorm((384,), eps=1e-05, elementwise_affine=True)
              (in_proj): Linear(in_features=384, out_features=384, bias=False)
              (act): SiLU()
              (conv2d): Conv2d(384, 384, kernel_size=(3, 3), stride=(1, 1), padding=(1, 1), groups=384)
              (out_act): Identity()
              (out_proj): Linear(in_features=384, out_features=384, bias=False)
              (dropout): Identity()
            )
            (drop_path): timm.DropPath(0.12857143580913544)
            (norm2): LayerNorm((384,), eps=1e-05, elementwise_affine=True)
            (mlp): Mlp(
              (fc1): Linear(in_features=384, out_features=1536, bias=True)
              (act): GELU(approximate='none')
              (fc2): Linear(in_features=1536, out_features=384, bias=True)
              (drop): Dropout(p=0.0, inplace=False)
            )
          )
          (6): VSSBlock(
            (norm): LayerNorm((384,), eps=1e-05, elementwise_affine=True)
            (op): SS2D(
              (out_norm): LayerNorm((384,), eps=1e-05, elementwise_affine=True)
              (in_proj): Linear(in_features=384, out_features=384, bias=False)
              (act): SiLU()
              (conv2d): Conv2d(384, 384, kernel_size=(3, 3), stride=(1, 1), padding=(1, 1), groups=384)
              (out_act): Identity()
              (out_proj): Linear(in_features=384, out_features=384, bias=False)
              (dropout): Identity()
            )
            (drop_path): timm.DropPath(0.1428571492433548)
            (norm2): LayerNorm((384,), eps=1e-05, elementwise_affine=True)
            (mlp): Mlp(
              (fc1): Linear(in_features=384, out_features=1536, bias=True)
              (act): GELU(approximate='none')
              (fc2): Linear(in_features=1536, out_features=384, bias=True)
              (drop): Dropout(p=0.0, inplace=False)
            )
          )
          (7): VSSBlock(
            (norm): LayerNorm((384,), eps=1e-05, elementwise_affine=True)
            (op): SS2D(
              (out_norm): LayerNorm((384,), eps=1e-05, elementwise_affine=True)
              (in_proj): Linear(in_features=384, out_features=384, bias=False)
              (act): SiLU()
              (conv2d): Conv2d(384, 384, kernel_size=(3, 3), stride=(1, 1), padding=(1, 1), groups=384)
              (out_act): Identity()
              (out_proj): Linear(in_features=384, out_features=384, bias=False)
              (dropout): Identity()
            )
            (drop_path): timm.DropPath(0.15714286267757416)
            (norm2): LayerNorm((384,), eps=1e-05, elementwise_affine=True)
            (mlp): Mlp(
              (fc1): Linear(in_features=384, out_features=1536, bias=True)
              (act): GELU(approximate='none')
              (fc2): Linear(in_features=1536, out_features=384, bias=True)
              (drop): Dropout(p=0.0, inplace=False)
            )
          )
          (8): VSSBlock(
            (norm): LayerNorm((384,), eps=1e-05, elementwise_affine=True)
            (op): SS2D(
              (out_norm): LayerNorm((384,), eps=1e-05, elementwise_affine=True)
              (in_proj): Linear(in_features=384, out_features=384, bias=False)
              (act): SiLU()
              (conv2d): Conv2d(384, 384, kernel_size=(3, 3), stride=(1, 1), padding=(1, 1), groups=384)
              (out_act): Identity()
              (out_proj): Linear(in_features=384, out_features=384, bias=False)
              (dropout): Identity()
            )
            (drop_path): timm.DropPath(0.17142857611179352)
            (norm2): LayerNorm((384,), eps=1e-05, elementwise_affine=True)
            (mlp): Mlp(
              (fc1): Linear(in_features=384, out_features=1536, bias=True)
              (act): GELU(approximate='none')
              (fc2): Linear(in_features=1536, out_features=384, bias=True)
              (drop): Dropout(p=0.0, inplace=False)
            )
          )
        )
        (downsample): PatchMerging2D(
          (reduction): Linear(in_features=1536, out_features=768, bias=False)
          (norm): LayerNorm((1536,), eps=1e-05, elementwise_affine=True)
        )
      )
      (3): Sequential(
        (blocks): Sequential(
          (0): VSSBlock(
            (norm): LayerNorm((768,), eps=1e-05, elementwise_affine=True)
            (op): SS2D(
              (out_norm): LayerNorm((768,), eps=1e-05, elementwise_affine=True)
              (in_proj): Linear(in_features=768, out_features=768, bias=False)
              (act): SiLU()
              (conv2d): Conv2d(768, 768, kernel_size=(3, 3), stride=(1, 1), padding=(1, 1), groups=768)
              (out_act): Identity()
              (out_proj): Linear(in_features=768, out_features=768, bias=False)
              (dropout): Identity()
            )
            (drop_path): timm.DropPath(0.18571428954601288)
            (norm2): LayerNorm((768,), eps=1e-05, elementwise_affine=True)
            (mlp): Mlp(
              (fc1): Linear(in_features=768, out_features=3072, bias=True)
              (act): GELU(approximate='none')
              (fc2): Linear(in_features=3072, out_features=768, bias=True)
              (drop): Dropout(p=0.0, inplace=False)
            )
          )
          (1): VSSBlock(
            (norm): LayerNorm((768,), eps=1e-05, elementwise_affine=True)
            (op): SS2D(
              (out_norm): LayerNorm((768,), eps=1e-05, elementwise_affine=True)
              (in_proj): Linear(in_features=768, out_features=768, bias=False)
              (act): SiLU()
              (conv2d): Conv2d(768, 768, kernel_size=(3, 3), stride=(1, 1), padding=(1, 1), groups=768)
              (out_act): Identity()
              (out_proj): Linear(in_features=768, out_features=768, bias=False)
              (dropout): Identity()
            )
            (drop_path): timm.DropPath(0.20000000298023224)
            (norm2): LayerNorm((768,), eps=1e-05, elementwise_affine=True)
            (mlp): Mlp(
              (fc1): Linear(in_features=768, out_features=3072, bias=True)
              (act): GELU(approximate='none')
              (fc2): Linear(in_features=3072, out_features=768, bias=True)
              (drop): Dropout(p=0.0, inplace=False)
            )
          )
        )
        (downsample): Identity()
      )
    )
    (outnorm0): LayerNorm((96,), eps=1e-05, elementwise_affine=True)
    (outnorm1): LayerNorm((192,), eps=1e-05, elementwise_affine=True)
    (outnorm2): LayerNorm((384,), eps=1e-05, elementwise_affine=True)
    (outnorm3): LayerNorm((768,), eps=1e-05, elementwise_affine=True)
  )
  (decode_head): CFFMHead_clips_resize1_8(
    input_transform=multiple_select, ignore_index=255, align_corners=False
    (loss_decode): CrossEntropyLoss()
    (conv_seg): Conv2d(128, 124, kernel_size=(1, 1), stride=(1, 1))
    (dropout): Dropout2d(p=0.1, inplace=False)
    (linear_c4): MLP(
      (proj): Linear(in_features=768, out_features=256, bias=True)
    )
    (linear_c3): MLP(
      (proj): Linear(in_features=384, out_features=256, bias=True)
    )
    (linear_c2): MLP(
      (proj): Linear(in_features=192, out_features=256, bias=True)
    )
    (linear_c1): MLP(
      (proj): Linear(in_features=96, out_features=256, bias=True)
    )
    (linear_fuse): ConvModule(
      (conv): Conv2d(1024, 256, kernel_size=(1, 1), stride=(1, 1), bias=False)
      (bn): BatchNorm2d(256, eps=1e-05, momentum=0.1, affine=True, track_running_stats=True)
      (activate): ReLU(inplace=True)
    )
    (linear_pred): Conv2d(256, 124, kernel_size=(1, 1), stride=(1, 1))
    (linear_pred2): Conv2d(512, 124, kernel_size=(1, 1), stride=(1, 1))
    (decoder_focal): BasicLayer3d3(
      (blocks): ModuleList(
        (0): CffmTransformerBlock3d3(
          (pool_layers): ModuleList(
            (0): Linear(in_features=49, out_features=1, bias=True)
          )
          (pool_layers_clips): ModuleList(
            (0): Linear(in_features=49, out_features=1, bias=True)
            (1): Linear(in_features=9, out_features=1, bias=True)
            (2): Linear(in_features=4, out_features=1, bias=True)
          )
          (norm1): LayerNorm((256,), eps=1e-05, elementwise_affine=True)
          (attn): WindowAttention3d3(
            (relative_position_bias_table_to_windows): ParameterList(  (0): Parameter containing: [torch.float32 of size 8x121])
            (relative_position_bias_table_to_windows_clips): ParameterList(
                (0): Parameter containing: [torch.float32 of size 8x169]
                (1): Parameter containing: [torch.float32 of size 8x121]
                (2): Parameter containing: [torch.float32 of size 8x81]
            )
            (unfolds): ModuleList(
              (0): Unfold(kernel_size=(5, 5), dilation=1, padding=2, stride=1)
            )
            (unfolds_clips): ModuleList(
              (0): Unfold(kernel_size=(7, 7), dilation=1, padding=3, stride=1)
              (1): Unfold(kernel_size=(5, 5), dilation=1, padding=2, stride=2)
              (2): Unfold(kernel_size=(3, 3), dilation=1, padding=1, stride=3)
            )
            (qkv): Linear(in_features=256, out_features=768, bias=True)
            (attn_drop): Dropout(p=0.0, inplace=False)
            (proj): Linear(in_features=256, out_features=256, bias=True)
            (proj_drop): Dropout(p=0.0, inplace=False)
            (softmax): Softmax(dim=-1)
          )
          (drop_path): Identity()
          (norm2): LayerNorm((256,), eps=1e-05, elementwise_affine=True)
          (mlp): Mlp(
            (fc1): Linear(in_features=256, out_features=1024, bias=True)
            (act): GELU(approximate='none')
            (fc2): Linear(in_features=1024, out_features=256, bias=True)
            (drop): Dropout(p=0.0, inplace=False)
          )
        )
      )
    )
  )
)
2026-03-21 14:16:00,458 - mmseg - INFO - 
Number of parameters (in millions): 30.707
2026-03-21 14:16:00,459 - mmseg - INFO - 
Number of parameters (in millions): 29.117
2026-03-21 14:16:00,459 - mmseg - INFO - Number of parameters (in millions) for decoder: 1.591
…
